models/chess_engine_one_hot_20201230_203814.pth (torch, 7201 bytes, 9 tensors)

conv1.weight f4 [8, 8, 2, 2]
00000000: a1da a83e 9ac0 dc3e bab6 8f3c d820 673e
00000010: 082d 5f3f 65dc 473f 064d 863f a807 853f
00000020: 1bd9 2bbe bd55 153f fcfd 683e 3164 1a3f
00000030: 2316 85bc 1af5 3d3f 99b0 4abe 8611 1a3f
00000040: 30a2 d73c c353 b83e 22e1 eebd abcc 873e
00000050: 4a85 2d3d c615 f2bd 15c9 09be 90e9 543e
00000060: 453f c23e b2fc be3e a69d cabc 2d4b 9b3e
00000070: 05f4 0c3e a4ac 85bf 5be4 e2bd 5a91 14bf
00000080: 2d84 633e e7db 853e 0cfd e83c d5a2 a0be
00000090: b555 0e3e fbaa 31be dc0a 143f 9d7c a5bf
000000a0: 746b fa3c 0e6f 6bbe 5f96 8fbe 34f3 05be
000000b0: dc69 0fbe 88ae cabd 7ff4 883e c4c8 9cbe
000000c0: e3c1 7c3e df54 213d 9c02 783e 3946 833e
000000d0: 0f9f b13e d28f bb3e 039f ad3e dff0 973e
000000e0: fbde 873f 4b52 003f 4ae7 883f 1d55 663f
000000f0: deda 9ebe ab0b 5a3f f7e7 a93e ee49 523f
00000100: ee17 023f ebbd 9f3f c970 c23e debe 973f
00000110: 2f33 14bf 51ff 373f a5e4 c2bd 5111 0a3f
00000120: 7d57 f43e c934 023f 9dbc ed3e a8dc 313d
00000130: fc84 e73d ae4b 943e 26e5 d03e f01b 303f
00000140: c47c 7d3d 3f87 e8bc af33 90bf 1e04 393e
00000150: d301 36be 9ef0 1e3f 1b5e b5bd 30ed c23d
00000160: 2659 df3d a6a4 0a3e a0cd 3abd df1d a3bf
00000170: c38a fd3e 1e12 ed3d 7325 193e 0818 303e
00000180: 9001 da3e 6e83 3fbd 9948 573d 535c 59bf
00000190: 2556 11bf 9dae 013f dcaf 9dbe 5cb7 053f
000001a0: cce1 abbd 8d49 e13e a341 e2bd 630e e23e
000001b0: d7de 833e d568 503d 878d 9e3e 03dc f13e
000001c0: 0fb7 2a3f c0fe 9f3e 3d39 98bd 3c26 4d3e
000001d0: 70f0 3a3f fe30 d6bd 94c2 df3d 2a61 8bbe
000001e0: b27a 7d3e a494 dcbe b7b6 2dbe 8058 143e
000001f0: d4d8 37be 8256 783e c8df 6fbc 9b4c 2abf
00000200: f37b 233f 82c9 663f e04e 413f 27d2 e53e
00000210: 332a 493f 9f91 b23e 5455 093f c1f2 253d
00000220: 5206 063f 85c6 2f3f 3b76 bb3e 4d3c cc3e
00000230: fde3 ab3e 9000 0d3f 9369 b73e fe07 c13c
00000240: 33e8 353e 9760 3c3f 08e8 703e 8941 1f3f
00000250: 4717 b33e 45ac 2d3f 2ca3 3e3e a2ef ed3e
00000260: 13db 27be c3fd a03e 5555 28be de68 cc3d
00000270: 5d2f 52bd 34f4 6e3e 62f4 59bf 7c65 2e3d
00000280: c995 0a3c 092e cbbd 2b0d aebc 2706 a9bc
00000290: 5e36 0abe 588e f6be b143 ccbe b417 d5bf
000002a0: 66a4 1d3e 0738 843e 6f5b 103f d3f6 293f
000002b0: fb8c 903e 797c 923e 5aba f13e 6c50 353f
000002c0: a511 7d3e 8504 023f ec23 203f 6e1a 743f
000002d0: 93f8 bd3e 9553 c33e ece0 093f e538 3f3f
000002e0: 8508 9ebc 419e 10bf 4260 50be f960 343e
000002f0: f3da 813d 74e6 a13d c5ed 053c 4f88 a6bb
00000300: 47d6 cfbc 47b3 bbbd 1b33 063e ce8f 163e
00000310: 9096 9abd 85e5 c5bf 4404 173c 9aad 0b3f
00000320: 8a6c 90be b4ef 6a3e fe72 8fbb f6e9 12bc
00000330: 926f 3e3e 68cc 6c3e 72c3 013e d492 f2bd
00000340: 4309 e9bd 3e29 683e fd6d 93bd ece7 b4be
00000350: 664e 863d ac60 fc3e e5d8 943e 7862 afbe
00000360: 5f66 033f d12f 923f aba4 f93d 1f55 56bf
00000370: 5e02 4bbf 632f a63f d34f 063f 8f57 003f
00000380: 181f a2bb bca5 aebf 461e d23e fb7f 773f
00000390: ef26 01bf 44df 40be 5892 ea3e 093b 3a3f
000003a0: f008 efbd 9dcf 7ebb fc09 52be df54 4e3f
000003b0: 1e0d cbbb ce7f 303d 04be 053e b70a b1be
000003c0: 50ef b9be 8ab3 683e 5cc5 44ba 1dfe 003f
000003d0: c586 4bbe 35cc 3f3e b993 d03d 8a34 d63e
000003e0: f058 76be 0469 f03d 390c 02be 6e4e aebf
000003f0: 96b9 133e 5946 a1be a408 243e 5341 c73e
0.329793 0.43115693 0.017543186 0.22571123 0.8717809 0.7807067 1.0492256 1.0392962
-0.16782038 0.5833395 0.22753137 0.6030913 -0.016245907 0.7420212 -0.19793929 0.6018299
0.026322454 0.36001405 -0.116640344 0.26523337 0.042363442 -0.11820559 -0.13455613 0.20792222
0.37938896 0.37302166 -0.024733376 0.30330792 0.13764961 -1.0443311 -0.110787116 -0.5803429
0.2221839 0.26144335 0.028440975 -0.3137423 0.13899882 -0.1735038 0.5782907 -1.2928654
0.030568816 -0.22991583 -0.28044412 -0.13081056 -0.14005226 -0.098965704 0.26749036 -0.30621922
0.24683337 0.03938758 0.24219745 0.25639513 0.34691665 0.36633164 0.3391038 0.29675958
1.0614923 0.5012557 1.0695584 0.8997362 -0.31026357 0.85174054 0.33184788 0.8214406
0.50817764 1.2479833 0.37976673 1.1855123 -0.578906 0.71873957 -0.09516267 0.5393267
0.47722998 0.50861794 0.46432963 0.043423325 0.11304662 0.2896399 0.40799826 0.6879263
0.061886564 -0.028384803 -1.1265773 0.18067977 -0.17774133 0.620859 -0.0885584 0.09517896
0.109056756 0.13539371 -0.045606256 -1.2743491 0.4951993 0.11575721 0.14955692 0.17196667
0.42579317 -0.0467562 0.05255947 -0.849065 -0.5677207 0.50657064 -0.30798233 0.5223291
-0.08392677 0.44001427 -0.110476755 0.441516 0.2575595 0.050881226 0.30967352 0.47238168
0.66685575 0.31249046 -0.07432792 0.20034117 0.7302313 -0.10458563 0.10925785 -0.27222568
0.24753836 -0.43082154 -0.16964231 0.14486885 -0.17953807 0.2425175 -0.014640756 -0.6652314
0.63861006 0.90151227 0.7551098 0.44886896 0.78580016 0.34876725 0.53645825 0.04051471
0.52353394 0.6866229 0.3661364 0.39889756 0.3357238 0.55078983 0.35822734 0.023563381
0.17764358 0.73584884 0.23526013 0.62209374 0.34978697 0.6784099 0.18616933 0.46471888
-0.16392164 0.31443605 -0.16438802 0.09980939 -0.0513147 0.23335344 -0.85138524 0.04257725
0.008458563 -0.0992089 -0.021246513 -0.020632816 -0.13497302 -0.48155475 -0.39895394 -1.6647859
0.15394744 0.25823995 0.56389517 0.6639225 0.2823256 0.2861059 0.47212487 0.7082584
0.24713762 0.50788146 0.6255481 0.9535283 0.3710371 0.38149706 0.5385883 0.7469619
-0.019291172 -0.56491476 -0.2034922 0.17615117 0.063405894 0.079052836 0.008174364 -0.005082167
-0.02537073 -0.09165054 0.13105433 0.14703295 -0.07548249 -1.5460669 0.009217326 0.5456177
-0.2820781 0.22943002 -0.004377722 -0.008966913 0.18597248 0.2312485 0.12672213 -0.118444115
-0.1137872 0.22671983 -0.07198713 -0.35333192 0.06557922 0.49292505 0.29071727 -0.34254813
0.5132808 1.1420842 0.12189611 -0.83723634 -0.7930049 1.2983211 0.5246555 0.50133604
-0.0049475543 -1.3644328 0.41038722 0.9667966 -0.5045003 -0.18835169 0.45814776 0.7274633
-0.116716266 -0.0038881071 -0.20511621 0.80598253 -0.006196632 0.043090634 0.13060766 -0.34578487
-0.36315393 0.22724739 -0.00075062155 0.50387746 -0.19875629 0.18730243 0.10184426 0.4183696
-0.24057364 0.1173878 -0.12699975 -1.3617685 0.14426264 -0.31498984 0.16018921 0.38917026

conv1.bias f4 [8]
00000000: 5fea a43b 1f2a ebbd 3e35 d0be 0c28 543d
00000010: 7e8f 21bd c09b 0d3e 2f44 ecbd 729e 273b
0.005032822 -0.11482643 -0.4066562 0.051796004 -0.039443485 0.13828945 -0.115364425 0.0025576619

conv2.weight f4 [8, 8, 2, 2]
00000000: 7857 e93e a3e3 d03d d3bf 083e 18d1 2ebe
00000010: deb2 573c 56e1 00bf 74ad 213e e30e bc3e
00000020: 13b4 163f 26e9 87bd 996b 3e3f 9f84 e53e
00000030: a9d2 af3b 1551 c33d 5534 01be c757 10bd
00000040: e26e 2b3f 34ee f03e c5a6 efbe 1f11 30be
00000050: eafb 373e 6372 e43e 20c2 343f 916f d73e
00000060: 73c2 703f 11be 213f bbac d43e 122e df3d
00000070: 1b53 09bf 90ef 66bf 0b36 1d3f 064d e23d
00000080: 2071 903d 6e9d 253e 6038 ed3e 76ab 583d
00000090: fbb8 5ebe 89fb c9be ff88 833f 323f ca3e
000000a0: 1a89 80be a67c a1be e8a8 bfbd ff15 7ebd
000000b0: 4383 543f e66a 553e ae3e b53d dff6 c93d
000000c0: 124d 8dbe 7994 a8bc d403 c43d fd46 e8bd
000000d0: d71c dc3e f4bc 8bbe 9ae7 343f 5e67 bbbd
000000e0: 5446 903e f258 3f3e 7209 2cbe 109c 783c
000000f0: b35c a9be c46a 2f3e 24dd e43e dfa7 1dbb
00000100: 313c 193e 7ab2 0e3e 02cd 25be 14ba d5be
00000110: 75b3 89be f496 263e cdbf 0ebf 0504 9abe
00000120: d9f6 753e a27f 1c3e a9dd 14bf c734 f7be
00000130: e87e 98be 0c1e ac3e b5b1 8c3e b1f8 493f
00000140: b5b6 6cbf c692 55bf 3de5 c23d 7793 6f3e
00000150: d3f0 7f3d 5fd6 b33d 57a8 34bf 0d1b 06bf
00000160: e901 40be df84 d5be 2c7c 933e bf6d 903c
00000170: 3455 6b3e 63ef 883d 607b 0ebe 27c9 21be
00000180: b97d f9be a839 74be 6aef 553f 560c 7c3f
00000190: 9156 15bf 6482 033f 68a9 993e 39c6 29bf
000001a0: f764 6fbc fbb7 c0be 41c0 103f bad6 55c0
000001b0: 5693 82be 3d9c 733e d455 a2bf 2a85 d93e
000001c0: 2633 2b3f c11d b9be 71c1 1bbf 6b41 6bbe
000001d0: 11aa dbbc edd0 a7be cb1b e93e 9e64 a7be
000001e0: 8650 083e a932 04bf 6a55 823e 1442 8abd
000001f0: 36dc 2f3f 07fa 033f 29f4 673e c199 6bbf
00000200: 1ab1 d03d c57e d83e 3bdf 91be e03a 9f3f
00000210: da2d 553c 3952 dfbe 0677 3b3d f976 4fbe
00000220: 4abc a23d 6f4e d53e 569f 0abe b8f6 1a3f
00000230: 8efc d33e fc7a 20bd 6808 8b3d c4fd 84be
00000240: edba 363d 399f e73e 43bf 9a3e 0bcf 3fbf
00000250: 422d c0bd 32b5 923d 6e33 06be 781b c23e
00000260: e3d7 bfbe 3304 293e 61ce e7be 254d 29bd
00000270: 9aa7 883d 06c5 223a 43d0 c3bd f88d 563f
00000280: 8dcc c5be f118 b13e 044e 313e 5d6a 863e
00000290: 8f11 423f 161f 9abd 3976 10bd 4fbd adbc
000002a0: 2ee2 39bf 8882 f5bd f97e 1ebf 1b60 133f
000002b0: 244c 8a3c f3d4 373e 7415 143e 2f98 b2be
000002c0: d3c6 85bd b5c3 1d3f f8ab 25be 2e57 77bf
000002d0: 778b 063e 8647 993e ccd9 a43e 98e3 4f3f
000002e0: 4160 87bd b66a 873f 001e f8be da2a 443f
000002f0: fc29 f0bd bd80 9ebe 4df0 40bf 96cf f33e
00000300: 58e9 34be 90c1 51be 5735 423e da10 203f
00000310: 7113 a8bf bd53 0dbf f635 3e3f 8b79 643e
00000320: a735 e8bd a7c9 b73e 9753 83bd c984 a03c
00000330: 141c aa3e a358 a4bb b050 7f3c d495 c4bd
00000340: c7a0 803e 22b8 e43e 8337 3bbe 832f e1bd
00000350: 0a14 303c 218c bcbe 60da 113f 5dcd 273f
00000360: 4240 a73f b599 ac3e ba97 a03e e8e7 ab3e
00000370: 8535 f2bd fe5e 603e c527 8d3d f95b 073f
00000380: 9534 60be 7e25 26bf bc2c 883d 105e aa3e
00000390: b04e 8abe 7029 39bf 9d21 cbbe fbf1 cabe
000003a0: 7e7c 40bf 14af 4dbf b0b9 51bd 32bd 7ebe
000003b0: 63cd 97bd 7c06 1abe 5a33 b4be 2ab2 19be
000003c0: 1e62 d63d a444 1f3f c641 7cbe 1454 c73e
000003d0: d88a be3d fb4a a9bf b30c cb3e cff3 c2be
000003e0: 606b df3e ce92 b63e e3cd b53e 67e9 8e3e
000003f0: 567a 2e3e dde7 a63e c01f 7c3d d209 d8be
0.45574546 0.10199668 0.13354425 -0.1707195 0.013165204 -0.50343835 0.15788823 0.36730108
0.5886852 -0.066362664 0.7438293 0.44827744 0.005365689 0.095369495 -0.1261762 -0.03523996
0.6696607 0.47056735 -0.46806923 -0.17194031 0.17967191 0.4461852 0.7060871 0.42077306
0.94046706 0.63180643 0.41538033 0.10897459 -0.53642434 -0.90209293 0.6141059 0.11049847
0.07052827 0.16173336 0.46332073 0.052897893 -0.21750252 -0.3944972 1.0276183 0.3950134
-0.251046 -0.31540412 -0.09358388 -0.062032696 0.8301279 0.2084156 0.08849846 0.0986154
-0.27597862 -0.02057861 0.09571043 -0.11341665 0.42990753 -0.27292597 0.70665896 -0.09150575
0.28178656 0.18686274 -0.16800478 0.015173927 -0.33078536 0.17130572 0.44699967 -0.0024056358
0.14964367 0.13935271 -0.16191486 -0.4174353 -0.26894727 0.16268522 -0.55761415 -0.30081192
0.24019946 0.15283063 -0.58150727 -0.48282453 -0.29784322 0.33616674 0.2747933 0.788951
-0.9246629 -0.83427083 0.0951638 0.23396097 0.062485527 0.087811224 -0.70569366 -0.52385026
-0.18750729 -0.41702935 0.28805673 0.017630456 0.22981721 0.066862844 -0.13914251 -0.1579939
-0.4872873 -0.23850119 0.8356844 0.98456323 -0.58335215 0.51370835 0.3001206 -0.6631809
-0.014611474 -0.37640366 0.56543356 -3.3412309 -0.25503033 0.23790069 -1.2682443 0.4248441
0.6687492 -0.36155513 -0.60842043 -0.22974174 -0.026814492 -0.32776585 0.45529017 -0.32693952
0.13311967 -0.516398 0.2545579 -0.06750885 0.6869539 0.51553386 0.22651733 -0.92031485
0.101900294 0.42284217 -0.28490624 1.2439842 0.01301142 -0.43617418 0.045767806 -0.20260228
0.079460695 0.41661403 -0.13537344 0.6053271 0.4140362 -0.039179787 0.06788713 -0.25974858
0.04461186 0.45238665 0.30224046 -0.749253 -0.09383632 0.071634665 -0.13105556 0.37911582
-0.37469396 0.16505508 -0.45274642 -0.041333336 0.066725925 0.00062091684 -0.09561207 0.8381038
-0.38632622 0.3458934 0.17314917 0.26253024 0.7580804 -0.075254604 -0.035268996 -0.021208433
-0.7261075 -0.119877875 -0.61912495 0.5756852 0.01688201 0.17952327 0.14461309 -0.34881732
-0.06532063 0.6162675 -0.16178882 -0.966174 0.13139139 0.2993738 0.32197416 0.81206656
-0.06610156 1.057944 -0.48460388 0.76627886 -0.11726758 -0.30957595 -0.7536667 0.47619313
-0.17667139 -0.20483994 0.1896566 0.62525713 -1.3130933 -0.552059 0.7430109 0.2231199
-0.11338358 0.35896036 -0.06412428 0.019594567 0.33224547 -0.005015449 0.015583202 -0.0959889
0.25122663 0.44671732 -0.18282895 -0.1099539 0.010746965 -0.3682566 0.5697384 0.65547734
1.3066485 0.3371102 0.31365758 0.33575368 -0.11826614 0.21911237 0.06892351 0.52874714
-0.21895058 -0.6490096 0.066491574 0.3327489 -0.2701316 -0.72328854 -0.39674082 -0.3963774
-0.7518996 -0.80345273 -0.051202476 -0.2487686 -0.07412221 -0.15041536 -0.35195428 -0.1500937
0.10467933 0.6221411 -0.24634466 0.38931334 0.09303826 -1.3226007 0.39658126 -0.38076636
0.43636608 0.35658878 0.35508642 0.27912447 0.17038855 0.32598773 0.061553717 -0.42194992

conv2.bias f4 [8]
00000000: 31a0 93be e11c 2cbe e941 0340 cb77 9ebe
00000010: cb53 993e 92d2 263b b574 3ebf 0163 c23f
-0.28833154 -0.16807891 2.0508978 -0.3095077 0.2994674 0.00254551 -0.7439683 1.5186464

fc1.weight f4 [16, 16]
00000000: 40dc 593e 5560 893e 2ed1 c13e 1504 a03e
00000010: 8a8f 0dbf 47e5 143e 7035 2e3e 2d37 e2be
00000020: 03ec c1be d4df 89bf 2711 05bf 4950 6a3e
00000030: 7b3b b93e caa2 3d3e 22a1 353f d441 58bd
00000040: 7066 8f3e ff11 9dbe 3434 083f 7e77 4dbe
00000050: fa37 1bbf 41ec e83e 9100 143f 5785 c43d
00000060: 3e82 9d3c 0d31 5cbf 82eb 73bd a759 59bf
00000070: 8091 693e 265d 703d 9760 05bf 651e 9f3f
00000080: 7ab2 a93e fc8e 87be 6c51 1abe e964 1dbf
00000090: 7325 5b3f 0777 943e 356b c5bd e5ad 4f3f
000000a0: aff9 1cbf 9a19 153f 4185 923e 9013 d23e
000000b0: 354a 923e 3924 813e 22cd c0be 3ac3 083e
000000c0: d8e8 643f a61a 3bbc 2aea 143f d175 743e
000000d0: 0538 c5bd 7789 623f a565 01c0 28cd a43d
000000e0: 0093 c5bd b698 ecbe 87b2 d93c cdab a6bf
000000f0: accb 213e ad69 67bf f3c7 5c3e fa55 013e
00000100: 15e1 86bd 3bb1 bdbd a52e 42be ec23 a93d
00000110: 0280 8cbe 07e6 65be a5c2 363e 7222 fcbd
00000120: 20f9 74bc 0404 17be f968 2c3e 7656 4bbc
00000130: cddd 91be e630 9ebb da56 16bd 6bbd 72bd
00000140: f8b2 fc3e a356 adbd 37c2 46bf 2b6e f9be
00000150: 3d65 bcbe 91b8 ca3e b0cc e6bd 577f 9ebf
00000160: 52ec f9bb ecae aa3e 71eb e6bd 34a2 3cbd
00000170: ff2e b4be cfff d23e a0f6 9bbe 7483 303a
00000180: bdb0 87be 3217 86bd 9208 2c3e af23 61be
00000190: e7ce 6abe 8423 853e 06de 023f 4630 0f3e
000001a0: 7ad1 08bf fdb7 f93e aea6 033f 7c94 053f
000001b0: c3f4 efbe a772 113e 1f5d 23bc b883 3abe
000001c0: a3cb 943e 1361 f4be 212d 563e 4709 9b3b
000001d0: 804d 0abf 25a7 8b3f c1a3 a7bf 0077 c43c
000001e0: 1a78 3f3e f003 0dbe 1cde 6fbe 933c aebe
000001f0: bf3f 0dbe 7171 203f 9699 e23e e1fd 803e
00000200: e884 993e d5b5 113f c54b c5bd a570 323e
00000210: 8c69 053f 246c 6ebe 8d7e 94be 69e8 e63d
00000220: a670 2fbe ccf5 063f 17aa 6dbd 5f94 343e
00000230: c1ca bf3d 31d2 ecbd 6ce6 8f3d 915a 08be
00000240: 815f 2dbf 7144 c43e 58f3 f3be 44c4 fa3e
00000250: 2790 993e 8321 fbbe 0b2e 8bbd 1128 dcbf
00000260: 5a92 e83e 18a4 3f3e ba9f 97be f538 8f3c
00000270: f845 b8bb f4cf 91be 7730 733f f51d a3be
00000280: 2dd0 f13d 867d c53d 298a 0b3e 6f05 393e
00000290: 183a b2bf 52b7 ac3e 60e0 53bf 3e69 223f
000002a0: c8dc 27bf 58e9 cdbe 1650 2b3f abf9 04bf
000002b0: 8b22 883f c414 1cbf b69a ccbe 2eff 773f
000002c0: 5b52 60be 331a 54be 5d04 fbbd 6962 b3bc
000002d0: 44df 9bbe 52e6 743c cc60 fb3d a1bd 043e
000002e0: 2404 6a3c 1829 253e f555 b83d 0003 7bbe
000002f0: c57e 823d 8369 983d b565 b6bc e3f4 9c3b
00000300: a078 ee3e 2134 d4be 5454 aa3e c35e 263f
00000310: 459b 6f3d 16dc 1a3f cfe4 34bf 5577 1fbf
00000320: b6f2 f43d 3a65 82be 0f2f ec3e 947e 5ebf
00000330: 71fe 86be e293 54bf 0c73 df3c d64d bb3e
00000340: f4af 853f 97f4 5dbe 2985 463f bf66 c8be
00000350: 2632 41bf ad85 2b3f 68a6 9ebf aad2 0e3f
00000360: 9608 023c 711c d73d 9cb9 94be 948a 7abe
00000370: 835c 5d3e 2436 a9bd 5c08 0dbe da99 1d3f
00000380: a412 a5bf da3e 013f a6b6 9ebd 759a 883c
00000390: 5d63 ba3e 0698 a63e 6ec5 66bf d944 91be
000003a0: 2b12 213e 55eb 2cbe 0e12 4f3e 9dc7 e3be
000003b0: 40ab 6fbe 7d02 08bf 9d34 8abf 265d 0f3f
000003c0: e7cc bd3e a2b9 adbe 99ec 8bbc 982f 6ebe
000003d0: 9a3c a83f 2159 4dbf d198 fa3d 4dc5 9a3e
000003e0: 45bc 03bf 8821 8fbc 50eb ee3d 78d8 dc3b
000003f0: f846 b83d 342c 863f acc5 063f e4b1 3dbf
0.21275425 0.26831308 0.37854904 0.31253114 -0.5529715 0.14540587 0.17012572 -0.4418272
-0.37875375 -1.0771432 -0.519793 0.22882189 0.36178192 0.1851913 0.70948994 -0.052797154
0.2800784 -0.30677792 0.53204656 -0.20065114 -0.6063229 0.45492747 0.57813364 0.09595745
0.019227143 -0.86012346 -0.05955077 -0.84902424 0.2280941 0.058682583 -0.5210051 1.2431151
0.3314398 -0.26476276 -0.15070122 -0.614821 0.8560402 0.2899706 -0.09639589 0.81124717
-0.61318487 0.5824219 0.2861729 0.4103055 0.2857224 0.25222948 -0.37656504 0.13355723
0.8941779 -0.011419928 0.58169806 0.23873068 -0.096298255 0.88491005 -2.021829 0.08046943
-0.09647179 -0.4621026 0.026574386 -1.302118 0.15800351 -0.90395623 0.2156065 0.12630454
-0.065859 -0.0926232 -0.18963106 0.08258805 -0.27441412 -0.2245103 0.17847688 -0.123112574
-0.014951974 -0.14747626 0.16836919 -0.012410751 -0.28489533 -0.0048276065 -0.03670392 -0.059262674
0.49355292 -0.0846379 -0.776401 -0.48716864 -0.3679599 0.39593938 -0.1126951 -1.2382611
-0.0076270485 0.3333658 -0.11275376 -0.046053126 -0.35192105 0.4121079 -0.30461597 0.0006733455
-0.26502028 -0.06547393 0.16800144 -0.21986268 -0.2293049 0.2600366 0.5112003 0.13983259
-0.53444636 0.48773184 0.5142621 0.52179694 -0.46866426 0.14203893 -0.009970932 -0.18214309
0.29061612 -0.47730312 0.20915653 0.0047313306 -0.54024506 1.0910383 -1.3096849 0.023982525
0.18698159 -0.13771033 -0.23424572 -0.3403059 -0.13793848 0.626731 0.44257802 0.25193694
0.29984212 0.5691808 -0.096335925 0.17425783 0.52114177 -0.2328344 -0.290028 0.112747975
-0.17132816 0.52718806 -0.05802354 0.17634724 0.09364844 -0.11563528 0.07026371 -0.13315798
-0.6772385 0.38333467 -0.47646594 0.48977864 0.29992792 -0.49049005 -0.067958914 -1.7199727
0.45424157 0.1871494 -0.2961405 0.017483214 -0.0056235753 -0.28478968 0.94995826 -0.31858793
0.118072845 0.09643082 0.13626923 0.18068479 -1.3923979 0.33733612 -0.82764244 0.63441837
-0.6557126 -0.4021709 0.66919076 -0.51943463 1.0635542 -0.60969186 -0.39961785 0.9687375
-0.21906416 -0.20713119 -0.122566916 -0.021897512 -0.30443776 0.014947491 0.12274322 0.12962963
0.014283214 0.16128957 0.0900077 -0.24512863 0.063718356 0.07442 -0.022265295 0.004789935
0.46576405 -0.4144602 0.33267462 0.64988345 0.058497686 0.60492074 -0.70661634 -0.6229146
0.11960356 -0.25467855 0.46129653 -0.8691189 -0.26365998 -0.8303815 0.027276538 0.36582822
1.0444322 -0.21675335 0.77546936 -0.3914089 -0.75467145 0.6700085 -1.2394533 0.557902
0.007936617 0.10503472 -0.2904786 -0.24466926 0.21617322 -0.0826228 -0.1377272 0.61562884
-1.2896314 0.5048653 -0.07749681 0.016675213 0.36403933 0.3253786 -0.90145004 -0.2837284
0.15729587 -0.16886647 0.20221731 -0.4448823 -0.2340517 -0.53128797 -1.0797306 0.5600151
0.3707039 -0.3393069 -0.017080592 -0.23260343 1.3143494 -0.80214125 0.12236179 0.30228654
-0.5145915 -0.017472044 0.11665976 0.0067396723 0.08997911 1.048224 0.52645373 -0.74099565

fc1.bias f4 [16]
00000000: dcdb 71be fc28 923f 8b13 933f 1ea1 cfbf
00000010: 861f 65be 2884 ed3f 1b00 d5be 6954 cabf
00000020: ff34 21bf 0b87 313f 9ba8 4f3f 9d4a 063d
00000030: 0858 483f 0618 88bf b1dd ab3f bad9 f5bd
-0.23619026 1.1418757 1.1490339 -1.6221044 -0.22375306 1.8555956 -0.41601643 -1.580701
-0.6297149 0.69346684 0.81116647 0.032786 0.78259325 -1.0632331 1.342703 -0.12004419

fc2.weight f4 [8, 16]
00000000: ef56 8f3d 8d44 e43e 12fd ee3e e959 503e
00000010: b30e ce3d f985 7cbf e584 073f 02c6 95bd
00000020: 9283 4ebe 8219 c93d 6005 893f 5ae3 c8bc
00000030: 58a7 143f d912 a93e 298f a33e 8533 a9be
00000040: 64ae 4f3c 206f 3ebe f2e7 5dbe 9cc7 f4be
00000050: 7ef3 923d 89f2 03bf 5d40 ddbf a8b0 39bd
00000060: 63c6 40be c047 7b3d c62c 703f 3a6b ffbc
00000070: 8d37 203f 9c99 fb3e 81a1 2bbf da0b 1d3e
00000080: 3f70 abbe e3c9 71bf cee1 ee3d 8a26 a6c0
00000090: c0da 1e3e 5cfe de3e 017a 003f b714 ddbd
000000a0: 070c 54be 1957 013f 1857 f63c 25a8 e6bd
000000b0: daa6 afbe fa9d 8d3d 881a df3f e6de 9d3e
000000c0: ca5f 37be a9b3 3fbd 2498 6cbe bb2a 7fc0
000000d0: 90ca 24be 63b9 55bd 563a fe3e a02c 473f
000000e0: 281b 203e acb6 613e c00e f6bd ec4e 03bc
000000f0: 0346 febe 7e80 d0bc 769a 343f 742d 903e
00000100: 00e5 4ebf 9e0e 243f 8341 9ebe dc3b 23bf
00000110: 84a2 103e b8b5 e7bc a129 00be 1662 2c3f
00000120: af8f 773c 77b4 c1be ceea 7cc0 1681 74be
00000130: 1133 98bf e629 8ebc 662c 2a3f 083b 5cbe
00000140: 8ef7 d1bd 5f40 07be 7ebd 1f3f 3868 31be
00000150: 562a 6b3e c54f 4bbf 084d 04be 2265 cf3f
00000160: 629f 96be 2795 273e 1f03 58bd afc5 173e
00000170: f919 c43e 5af2 a6bf a0f5 56bf e3b2 64be
00000180: a567 6ebe 3c91 b33c 973d a7bc c814 37be
00000190: e01c 743d e486 f8bd 248d 853d cf88 a43d
000001a0: 1f63 8abe f0bf 06be b061 c7bd 5c53 b43d
000001b0: 1c52 13bd 5e7f 253d 1456 debd f47a 57bd
000001c0: a51b 633e 81e0 0abe f3fc 873e f575 a83c
000001d0: 48f9 4bbd 28cf a73d 99af 94bf ef12 013f
000001e0: 1298 59bf 6784 073d 37b9 ad3e e856 76bd
000001f0: d662 573f 99d3 adbf 1b92 8abf d380 19bd
0.06999003 0.4458355 0.46677452 0.20346798 0.100613974 -0.98641926 0.52937156 -0.073131576
-0.20167378 0.09819318 1.0704765 -0.024522472 0.58067846 0.33022192 0.3194516 -0.3304712
0.012675855 -0.18597078 -0.21670511 -0.4780854 0.07175349 -0.51541954 -1.7285267 -0.04533449
-0.18825679 0.061347723 0.9381832 -0.03117906 0.62584764 0.49140632 -0.6704331 0.15336552
-0.33484074 -0.9444868 0.116641626 -5.1922045 0.15513134 0.43553436 0.50186163 -0.10794967
-0.20707713 0.50523525 0.030070826 -0.1126254 -0.34306985 0.06914897 1.7429972 0.3083412
-0.17907634 -0.046802197 -0.23104912 -3.986983 -0.16092896 -0.05217875 0.49653882 0.7780247
0.1563536 0.2204234 -0.12014532 -0.008014422 -0.4966279 -0.025451895 0.7054819 0.28159678
-0.80818176 0.64084804 -0.30909356 -0.63763213 0.14124495 -0.028284892 -0.1251588 0.6733717
0.01510994 -0.37832996 -3.9518313 -0.23877367 -1.1890584 -0.017353963 0.66473997 -0.21506894
-0.102522954 -0.1320815 0.6239852 -0.17324913 0.22965369 -0.79418594 -0.1292001 1.6202738
-0.29418474 0.16365491 -0.05273735 0.14821504 0.38301066 -1.304271 -0.83968544 -0.22333865
-0.23281725 0.02191984 -0.02041511 -0.17879021 0.05959785 -0.12135103 0.06521061 0.08033907
-0.27028748 -0.13159156 -0.09735429 0.08804962 -0.035966977 0.04040467 -0.10856262 -0.05260749
0.22178514 -0.13562204 0.26560172 0.020564059 -0.04979828 0.08193809 -1.1616088 0.50419515
-0.84997666 0.033085253 0.3393037 -0.060141474 0.84135187 -1.35802 -1.0825838 -0.037476372

fc2.bias f4 [8]
00000000: e8ef 373e 77fa 9b3e 51ca 333f fac1 893f
00000010: 456d 8d3f cb80 cd3d 4c6a 7bbe 1ea2 8ebe
0.1796261 0.30464527 0.70230585 1.0762322 1.1048971 0.10034331 -0.24552268 -0.2785806

fc3.weight f4 [1, 8]
00000000: 8861 29be e83e ec3d e06f a73e 7476 3e3e
00000010: 2563 b43f 3fa0 ba3e 7204 793d 8f8a eabe
-0.16541111 0.11535436 0.3270254 0.18599874 1.4092757 0.36450383 0.060795255 -0.45808837
